_________________________________________________________________
Layer (type)                 Output Shape              Param #   
=================================================================
1639591217.5928462 (InputLay (None, 59, 4, 1)          0         
_________________________________________________________________
1639591217.593677 (Conv2D)   (None, 59, 4, 32)         1600      
_________________________________________________________________
1639591217.606951 (MaxPoolin (None, 30, 2, 32)         0         
_________________________________________________________________
1639591217.607811 (Flatten)  (None, 1920)              0         
_________________________________________________________________
1639591217.611603 (Dense)    (None, 4)                 7684      
=================================================================
Total params: 9,284
Trainable params: 9,284
Non-trainable params: 0
_________________________________________________________________
