_________________________________________________________________
Layer (type)                 Output Shape              Param #   
=================================================================
1643050809.7536662 (InputLay (None, 47, 181, 1)        0         
_________________________________________________________________
1643050809.754666 (Conv2D)   (None, 47, 181, 8)        400       
_________________________________________________________________
1643050809.770002 (Dropout)  (None, 47, 181, 8)        0         
_________________________________________________________________
1643050809.7861938 (Conv2D)  (None, 47, 181, 64)       12864     
_________________________________________________________________
1643050809.802401 (Flatten)  (None, 544448)            0         
_________________________________________________________________
1643050809.808031 (Dense)    (None, 2)                 1088898   
=================================================================
Total params: 1,102,162
Trainable params: 1,102,162
Non-trainable params: 0
_________________________________________________________________
