_________________________________________________________________
Layer (type)                 Output Shape              Param #   
=================================================================
1643667446.6215181 (InputLay (None, 20, 20, 1)         0         
_________________________________________________________________
1643667446.622321 (Conv2D)   (None, 20, 20, 16)        32        
_________________________________________________________________
1643667446.63471 (Flatten)   (None, 6400)              0         
_________________________________________________________________
1643667446.638308 (Dense)    (None, 256)               1638656   
_________________________________________________________________
1643667446.6494231 (Dense)   (None, 2)                 514       
=================================================================
Total params: 1,639,202
Trainable params: 1,639,202
Non-trainable params: 0
_________________________________________________________________
