_________________________________________________________________
Layer (type)                 Output Shape              Param #   
=================================================================
1673788332.652528 (InputLaye (None, 59, 4, 1)          0         
_________________________________________________________________
1673788332.6531498 (Conv2D)  (None, 59, 4, 32)         320       
_________________________________________________________________
1673788332.6640582 (Flatten) (None, 7552)              0         
_________________________________________________________________
1673788332.6674051 (Dense)   (None, 64)                483392    
_________________________________________________________________
1673788332.677162 (Dense)    (None, 2)                 130       
=================================================================
Total params: 483,842
Trainable params: 483,842
Non-trainable params: 0
_________________________________________________________________
