_________________________________________________________________
Layer (type)                 Output Shape              Param #   
=================================================================
1674342205.3964958 (InputLay (None, 20, 20, 1)         0         
_________________________________________________________________
1674342205.397074 (Conv2D)   (None, 20, 20, 64)        1664      
_________________________________________________________________
1674342436.7061079 (Conv2D)  (None, 20, 20, 32)        100384    
_________________________________________________________________
1674342436.717493 (AveragePo (None, 10, 10, 32)        0         
_________________________________________________________________
1674342436.71823 (Flatten)   (None, 3200)              0         
_________________________________________________________________
1674342436.721667 (Dense)    (None, 1)                 3201      
=================================================================
Total params: 105,249
Trainable params: 105,249
Non-trainable params: 0
_________________________________________________________________
