_________________________________________________________________
Layer (type)                 Output Shape              Param #   
=================================================================
1642912355.626306 (InputLaye (None, 20, 20, 1)         0         
_________________________________________________________________
1642912355.6271648 (Conv2D)  (None, 20, 20, 64)        3200      
_________________________________________________________________
1642912355.64121 (Conv2D)    (None, 20, 20, 16)        9232      
_________________________________________________________________
1642912355.6554189 (Flatten) (None, 6400)              0         
_________________________________________________________________
1642912355.660096 (Dense)    (None, 1)                 6401      
=================================================================
Total params: 18,833
Trainable params: 18,833
Non-trainable params: 0
_________________________________________________________________
