_________________________________________________________________
Layer (type)                 Output Shape              Param #   
=================================================================
1661269379.428631 (InputLaye (None, 238, 20, 1)        0         
_________________________________________________________________
1661269379.429268 (Conv2D)   (None, 238, 20, 16)       416       
_________________________________________________________________
1661271720.489652 (Flatten)  (None, 76160)             0         
_________________________________________________________________
1661271720.494147 (Dense)    (None, 30)                2284830   
_________________________________________________________________
1661271720.5072021 (Dense)   (None, 1)                 31        
=================================================================
Total params: 2,285,277
Trainable params: 2,285,277
Non-trainable params: 0
_________________________________________________________________
