_________________________________________________________________
Layer (type)                 Output Shape              Param #   
=================================================================
1649099015.078387 (InputLaye (None, 20, 4, 1)          0         
_________________________________________________________________
1649099015.079255 (Conv2D)   (None, 20, 4, 16)         160       
_________________________________________________________________
1649099015.093459 (BatchNorm (None, 20, 4, 16)         64        
_________________________________________________________________
1649099015.129127 (Flatten)  (None, 1280)              0         
_________________________________________________________________
1649099015.132937 (Dense)    (None, 4)                 5124      
=================================================================
Total params: 5,348
Trainable params: 5,316
Non-trainable params: 32
_________________________________________________________________
