_________________________________________________________________
Layer (type)                 Output Shape              Param #   
=================================================================
1672424962.417141 (InputLaye (None, 59, 4, 1)          0         
_________________________________________________________________
1672424962.4178061 (Conv2D)  (None, 59, 4, 64)         1664      
_________________________________________________________________
1672424962.429183 (Flatten)  (None, 15104)             0         
_________________________________________________________________
1672425462.007684 (Dense)    (None, 30)                453150    
_________________________________________________________________
1672425462.0242188 (Dense)   (None, 1)                 31        
=================================================================
Total params: 454,845
Trainable params: 454,845
Non-trainable params: 0
_________________________________________________________________
