_________________________________________________________________
Layer (type)                 Output Shape              Param #   
=================================================================
1642469803.7628329 (InputLay (None, 59, 4, 1)          0         
_________________________________________________________________
1642469803.763674 (Conv2D)   (None, 59, 4, 32)         1600      
_________________________________________________________________
1642469861.239125 (Conv2D)   (None, 59, 4, 32)         50208     
_________________________________________________________________
1642469861.2504141 (Dropout) (None, 59, 4, 32)         0         
_________________________________________________________________
1642469861.2611961 (Flatten) (None, 7552)              0         
_________________________________________________________________
1642469861.264838 (Dense)    (None, 2)                 15106     
=================================================================
Total params: 66,914
Trainable params: 66,914
Non-trainable params: 0
_________________________________________________________________
