_________________________________________________________________
Layer (type)                 Output Shape              Param #   
=================================================================
1671496243.9624681 (InputLay (None, 20, 4, 1)          0         
_________________________________________________________________
1671496243.963118 (Conv2D)   (None, 20, 4, 16)         800       
_________________________________________________________________
1671496243.9755142 (Flatten) (None, 1280)              0         
_________________________________________________________________
1671496243.979384 (Dense)    (None, 128)               163968    
_________________________________________________________________
1671496243.991401 (Dense)    (None, 4)                 516       
=================================================================
Total params: 165,284
Trainable params: 165,284
Non-trainable params: 0
_________________________________________________________________
