_________________________________________________________________
Layer (type)                 Output Shape              Param #   
=================================================================
1671284249.551716 (InputLaye (None, 20, 20, 1)         0         
_________________________________________________________________
1671284249.552308 (Conv2D)   (None, 20, 20, 64)        3200      
_________________________________________________________________
1671284435.453272 (Dropout)  (None, 20, 20, 64)        0         
_________________________________________________________________
1671284435.4633222 (Conv2D)  (None, 20, 20, 32)        18464     
_________________________________________________________________
1671284435.4747589 (Flatten) (None, 12800)             0         
_________________________________________________________________
1671284435.478282 (Dense)    (None, 2)                 25602     
=================================================================
Total params: 47,266
Trainable params: 47,266
Non-trainable params: 0
_________________________________________________________________
