_________________________________________________________________
Layer (type)                 Output Shape              Param #   
=================================================================
1671714947.997025 (InputLaye (None, 11, 753, 1)        0         
_________________________________________________________________
1671714947.9976268 (Conv2D)  (None, 11, 753, 16)       800       
_________________________________________________________________
1671715239.934844 (BatchNorm (None, 11, 753, 16)       64        
_________________________________________________________________
1671715240.1112761 (Flatten) (None, 132528)            0         
_________________________________________________________________
1671715240.115486 (Dense)    (None, 4)                 530116    
=================================================================
Total params: 530,980
Trainable params: 530,948
Non-trainable params: 32
_________________________________________________________________
