_________________________________________________________________
Layer (type)                 Output Shape              Param #   
=================================================================
1642691441.121901 (InputLaye (None, 59, 4, 1)          0         
_________________________________________________________________
1642691441.122781 (Conv2D)   (None, 59, 4, 64)         1664      
_________________________________________________________________
1642691674.275438 (MaxPoolin (None, 20, 2, 64)         0         
_________________________________________________________________
1642691674.276559 (Conv2D)   (None, 20, 2, 8)          12808     
_________________________________________________________________
1642691674.289984 (Flatten)  (None, 320)               0         
_________________________________________________________________
1642691674.29471 (Dense)     (None, 1)                 321       
=================================================================
Total params: 14,793
Trainable params: 14,793
Non-trainable params: 0
_________________________________________________________________
