_________________________________________________________________
Layer (type)                 Output Shape              Param #   
=================================================================
1643123146.131376 (InputLaye (None, 5, 165, 1)         0         
_________________________________________________________________
1643123146.132201 (Conv2D)   (None, 5, 165, 32)        832       
_________________________________________________________________
1643123146.149338 (Flatten)  (None, 26400)             0         
_________________________________________________________________
1643123146.155317 (Dense)    (None, 64)                1689664   
_________________________________________________________________
1643123146.1703901 (Dense)   (None, 2)                 130       
=================================================================
Total params: 1,690,626
Trainable params: 1,690,626
Non-trainable params: 0
_________________________________________________________________
