_________________________________________________________________
Layer (type)                 Output Shape              Param #   
=================================================================
1671624738.846453 (InputLaye (None, 59, 4, 1)          0         
_________________________________________________________________
1671624738.847359 (Conv2D)   (None, 59, 4, 32)         832       
_________________________________________________________________
1671624794.68923 (Dropout)   (None, 59, 4, 32)         0         
_________________________________________________________________
1671624794.6993122 (Flatten) (None, 7552)              0         
_________________________________________________________________
1671624794.7028558 (Dense)   (None, 4)                 30212     
=================================================================
Total params: 31,044
Trainable params: 31,044
Non-trainable params: 0
_________________________________________________________________
