_________________________________________________________________
Layer (type)                 Output Shape              Param #   
=================================================================
1642454673.641574 (InputLaye (None, 59, 4, 1)          0         
_________________________________________________________________
1642454673.6423948 (Conv2D)  (None, 59, 4, 32)         320       
_________________________________________________________________
1642454673.6574469 (Dropout) (None, 59, 4, 32)         0         
_________________________________________________________________
1642454673.6747038 (Flatten) (None, 7552)              0         
_________________________________________________________________
1642454673.6802812 (Dense)   (None, 2)                 15106     
=================================================================
Total params: 15,426
Trainable params: 15,426
Non-trainable params: 0
_________________________________________________________________
