_________________________________________________________________
Layer (type)                 Output Shape              Param #   
=================================================================
1638214397.896868 (InputLaye (None, 59, 4, 1)          0         
_________________________________________________________________
1638214397.8979058 (Conv2D)  (None, 59, 4, 32)         832       
_________________________________________________________________
1638214397.9130251 (Flatten) (None, 7552)              0         
_________________________________________________________________
1638214641.274047 (Dense)    (None, 64)                483392    
_________________________________________________________________
1638214641.2865589 (Dense)   (None, 2)                 130       
=================================================================
Total params: 484,354
Trainable params: 484,354
Non-trainable params: 0
_________________________________________________________________
