_________________________________________________________________
Layer (type)                 Output Shape              Param #   
=================================================================
1646684106.2548301 (InputLay (None, 17, 4, 1)          0         
_________________________________________________________________
1646684106.256098 (Conv2D)   (None, 17, 4, 64)         3200      
_________________________________________________________________
1646684106.276694 (Flatten)  (None, 4352)              0         
_________________________________________________________________
1646684106.282732 (Dense)    (None, 30)                130590    
_________________________________________________________________
1646684106.296522 (Dense)    (None, 2)                 62        
=================================================================
Total params: 133,852
Trainable params: 130,652
Non-trainable params: 3,200
_________________________________________________________________
