_________________________________________________________________
Layer (type)                 Output Shape              Param #   
=================================================================
1673355035.170082 (InputLaye (None, 238, 20, 1)        0         
_________________________________________________________________
1673355035.1846411 (Conv2D)  (None, 238, 20, 64)       3200      
_________________________________________________________________
1673355035.206961 (Flatten)  (None, 304640)            0         
_________________________________________________________________
1673359620.343662 (Dense)    (None, 256)               77988096  
_________________________________________________________________
1673359620.3543732 (Dense)   (None, 1)                 257       
=================================================================
Total params: 77,991,553
Trainable params: 77,991,553
Non-trainable params: 0
_________________________________________________________________
