_________________________________________________________________
Layer (type)                 Output Shape              Param #   
=================================================================
1649129789.6393821 (InputLay (None, 17, 4, 1)          0         
_________________________________________________________________
1649129789.6523361 (Conv2D)  (None, 17, 4, 64)         3200      
_________________________________________________________________
1649130229.729815 (MaxPoolin (None, 9, 2, 64)          0         
_________________________________________________________________
1649130229.730779 (Conv2D)   (None, 9, 2, 16)          9232      
_________________________________________________________________
1649130229.741725 (Flatten)  (None, 288)               0         
_________________________________________________________________
1649130229.745118 (Dense)    (None, 4)                 1156      
=================================================================
Total params: 13,588
Trainable params: 13,588
Non-trainable params: 0
_________________________________________________________________
