_________________________________________________________________
Layer (type)                 Output Shape              Param #   
=================================================================
1667826767.929248 (InputLaye (None, 20, 4, 1)          0         
_________________________________________________________________
1667826767.930028 (Conv2D)   (None, 20, 4, 16)         160       
_________________________________________________________________
1667826767.941636 (BatchNorm (None, 20, 4, 16)         64        
_________________________________________________________________
1667826767.9742458 (Flatten) (None, 1280)              0         
_________________________________________________________________
1667826767.977816 (Dense)    (None, 2)                 2562      
=================================================================
Total params: 2,786
Trainable params: 2,754
Non-trainable params: 32
_________________________________________________________________
