_________________________________________________________________
Layer (type)                 Output Shape              Param #   
=================================================================
1642528555.7339892 (InputLay (None, 17, 4, 1)          0         
_________________________________________________________________
1642528555.7347798 (Conv2D)  (None, 17, 4, 32)         1600      
_________________________________________________________________
1642528555.751775 (Flatten)  (None, 2176)              0         
_________________________________________________________________
1642528555.7575018 (Dense)   (None, 64)                139328    
_________________________________________________________________
1642528555.774697 (Dense)    (None, 2)                 130       
=================================================================
Total params: 141,058
Trainable params: 141,058
Non-trainable params: 0
_________________________________________________________________
