_________________________________________________________________
Layer (type)                 Output Shape              Param #   
=================================================================
1675017294.368352 (InputLaye (None, 20, 4, 1)          0         
_________________________________________________________________
1675017294.369005 (Conv2D)   (None, 20, 4, 64)         128       
_________________________________________________________________
1675017294.381134 (Flatten)  (None, 5120)              0         
_________________________________________________________________
1675017294.3850722 (Dense)   (None, 128)               655488    
_________________________________________________________________
1675017294.397239 (Dense)    (None, 2)                 258       
=================================================================
Total params: 655,874
Trainable params: 655,874
Non-trainable params: 0
_________________________________________________________________
