_________________________________________________________________
Layer (type)                 Output Shape              Param #   
=================================================================
1671541111.918915 (InputLaye (None, 17, 4, 1)          0         
_________________________________________________________________
1671541111.919683 (Conv2D)   (None, 17, 4, 64)         128       
_________________________________________________________________
1671541111.93376 (Flatten)   (None, 4352)              0         
_________________________________________________________________
1671541481.267015 (Dense)    (None, 64)                278592    
_________________________________________________________________
1671541481.278207 (Dense)    (None, 4)                 260       
=================================================================
Total params: 278,980
Trainable params: 278,980
Non-trainable params: 0
_________________________________________________________________
