_________________________________________________________________
Layer (type)                 Output Shape              Param #   
=================================================================
1674528366.485779 (InputLaye (None, 17, 4, 1)          0         
_________________________________________________________________
1674528366.486377 (Conv2D)   (None, 17, 4, 64)         3200      
_________________________________________________________________
1674528366.497644 (Dropout)  (None, 17, 4, 64)         0         
_________________________________________________________________
1674528366.507272 (Conv2D)   (None, 17, 4, 64)         102464    
_________________________________________________________________
1674528366.518093 (Flatten)  (None, 4352)              0         
_________________________________________________________________
1674528366.521943 (Dense)    (None, 2)                 8706      
=================================================================
Total params: 114,370
Trainable params: 114,370
Non-trainable params: 0
_________________________________________________________________
