_________________________________________________________________
Layer (type)                 Output Shape              Param #   
=================================================================
1649723656.407491 (InputLaye (None, 20, 4, 1)          0         
_________________________________________________________________
1649723656.418242 (Conv2D)   (None, 20, 4, 16)         160       
_________________________________________________________________
1649723868.69926 (Conv2D)    (None, 20, 4, 8)          136       
_________________________________________________________________
1649723868.713932 (BatchNorm (None, 20, 4, 8)          32        
_________________________________________________________________
1649723868.756031 (Flatten)  (None, 640)               0         
_________________________________________________________________
1649723868.7604961 (Dense)   (None, 2)                 1282      
=================================================================
Total params: 1,610
Trainable params: 1,594
Non-trainable params: 16
_________________________________________________________________
