_________________________________________________________________
Layer (type)                 Output Shape              Param #   
=================================================================
1674415448.9124448 (InputLay (None, 59, 4, 1)          0         
_________________________________________________________________
1674415448.913036 (Conv2D)   (None, 59, 4, 64)         640       
_________________________________________________________________
1674415448.924256 (BatchNorm (None, 59, 4, 64)         256       
_________________________________________________________________
1674415448.956652 (Flatten)  (None, 15104)             0         
_________________________________________________________________
1674415448.960159 (Dense)    (None, 2)                 30210     
=================================================================
Total params: 31,106
Trainable params: 30,978
Non-trainable params: 128
_________________________________________________________________
