_________________________________________________________________
Layer (type)                 Output Shape              Param #   
=================================================================
1641928621.386794 (InputLaye (None, 47, 181, 1)        0         
_________________________________________________________________
1641928621.387514 (Conv2D)   (None, 47, 181, 8)        400       
_________________________________________________________________
1641928621.402563 (Flatten)  (None, 68056)             0         
_________________________________________________________________
1641928699.644814 (Dense)    (None, 128)               8711296   
_________________________________________________________________
1641928699.655639 (Dense)    (None, 2)                 258       
=================================================================
Total params: 8,711,954
Trainable params: 8,711,954
Non-trainable params: 0
_________________________________________________________________
