_________________________________________________________________
Layer (type)                 Output Shape              Param #   
=================================================================
1661002315.15694 (InputLayer (None, 749, 20, 1)        0         
_________________________________________________________________
1661002315.157844 (Conv2D)   (None, 749, 20, 32)       1600      
_________________________________________________________________
1661007116.544876 (AveragePo (None, 375, 10, 32)       0         
_________________________________________________________________
1661007116.5463119 (Flatten) (None, 120000)            0         
_________________________________________________________________
1661007116.551817 (Dense)    (None, 1)                 120001    
=================================================================
Total params: 121,601
Trainable params: 121,601
Non-trainable params: 0
_________________________________________________________________
