_________________________________________________________________
Layer (type)                 Output Shape              Param #   
=================================================================
1674497221.985458 (InputLaye (None, 17, 4, 1)          0         
_________________________________________________________________
1674497221.9860532 (Conv2D)  (None, 17, 4, 32)         832       
_________________________________________________________________
1674497221.997524 (Flatten)  (None, 2176)              0         
_________________________________________________________________
1674497238.50333 (Dense)     (None, 64)                139328    
_________________________________________________________________
1674497238.654162 (Dense)    (None, 2)                 130       
=================================================================
Total params: 140,290
Trainable params: 140,290
Non-trainable params: 0
_________________________________________________________________
