_________________________________________________________________
Layer (type)                 Output Shape              Param #   
=================================================================
1671336182.082907 (InputLaye (None, 59, 4, 1)          0         
_________________________________________________________________
1671336182.0835662 (Conv2D)  (None, 59, 4, 64)         3200      
_________________________________________________________________
1671336182.0960371 (Flatten) (None, 15104)             0         
_________________________________________________________________
1671336489.154124 (Dense)    (None, 256)               3866880   
_________________________________________________________________
1671336489.1647732 (Dense)   (None, 2)                 514       
=================================================================
Total params: 3,870,594
Trainable params: 3,870,594
Non-trainable params: 0
_________________________________________________________________
