_________________________________________________________________
Layer (type)                 Output Shape              Param #   
=================================================================
1674516385.623221 (InputLaye (None, 17, 4, 1)          0         
_________________________________________________________________
1674516385.623811 (Conv2D)   (None, 17, 4, 32)         832       
_________________________________________________________________
1674516392.155288 (BatchNorm (None, 17, 4, 32)         128       
_________________________________________________________________
1674516392.187822 (Flatten)  (None, 2176)              0         
_________________________________________________________________
1674516392.1913002 (Dense)   (None, 2)                 4354      
=================================================================
Total params: 5,314
Trainable params: 5,250
Non-trainable params: 64
_________________________________________________________________
