_________________________________________________________________
Layer (type)                 Output Shape              Param #   
=================================================================
1642535790.812184 (InputLaye (None, 17, 4, 1)          0         
_________________________________________________________________
1642535790.813001 (Conv2D)   (None, 17, 4, 16)         416       
_________________________________________________________________
1642535790.826708 (MaxPoolin (None, 9, 2, 16)          0         
_________________________________________________________________
1642535790.827764 (BatchNorm (None, 9, 2, 16)          64        
_________________________________________________________________
1642535790.862709 (Flatten)  (None, 288)               0         
_________________________________________________________________
1642535790.866266 (Dense)    (None, 2)                 578       
=================================================================
Total params: 1,058
Trainable params: 1,026
Non-trainable params: 32
_________________________________________________________________
