_________________________________________________________________
Layer (type)                 Output Shape              Param #   
=================================================================
1671160358.857963 (InputLaye (None, 17, 4, 1)          0         
_________________________________________________________________
1671160358.858701 (Conv2D)   (None, 17, 4, 32)         1600      
_________________________________________________________________
1671160358.871562 (Flatten)  (None, 2176)              0         
_________________________________________________________________
1671160358.8757818 (Dense)   (None, 256)               557312    
_________________________________________________________________
1671160359.024989 (Dense)    (None, 2)                 514       
=================================================================
Total params: 559,426
Trainable params: 559,426
Non-trainable params: 0
_________________________________________________________________
