_________________________________________________________________
Layer (type)                 Output Shape              Param #   
=================================================================
1672161872.214505 (InputLaye (None, 17, 4, 1)          0         
_________________________________________________________________
1672161872.2151418 (Conv2D)  (None, 17, 4, 32)         832       
_________________________________________________________________
1672161979.1377652 (Conv2D)  (None, 17, 4, 64)         2112      
_________________________________________________________________
1672161979.149338 (Flatten)  (None, 4352)              0         
_________________________________________________________________
1672161979.15286 (Dense)     (None, 1)                 4353      
=================================================================
Total params: 7,297
Trainable params: 7,297
Non-trainable params: 0
_________________________________________________________________
