_________________________________________________________________
Layer (type)                 Output Shape              Param #   
=================================================================
1671586275.041145 (InputLaye (None, 20, 20, 1)         0         
_________________________________________________________________
1671586275.041739 (Conv2D)   (None, 20, 20, 32)        1600      
_________________________________________________________________
1671586584.467804 (MaxPoolin (None, 10, 10, 32)        0         
_________________________________________________________________
1671586584.4688058 (Conv2D)  (None, 10, 10, 32)        50208     
_________________________________________________________________
1671586584.480066 (Flatten)  (None, 3200)              0         
_________________________________________________________________
1671586584.483534 (Dense)    (None, 4)                 12804     
=================================================================
Total params: 64,612
Trainable params: 64,612
Non-trainable params: 0
_________________________________________________________________
