_________________________________________________________________
Layer (type)                 Output Shape              Param #   
=================================================================
1674474753.8324091 (InputLay (None, 17, 4, 1)          0         
_________________________________________________________________
1674474753.8329978 (Conv2D)  (None, 17, 4, 64)         640       
_________________________________________________________________
1674474758.461096 (BatchNorm (None, 17, 4, 64)         256       
_________________________________________________________________
1674474775.884084 (Conv2D)   (None, 17, 4, 8)          4616      
_________________________________________________________________
1674474775.8958972 (Flatten) (None, 544)               0         
_________________________________________________________________
1674474775.899356 (Dense)    (None, 2)                 1090      
=================================================================
Total params: 6,602
Trainable params: 6,474
Non-trainable params: 128
_________________________________________________________________
