_________________________________________________________________
Layer (type)                 Output Shape              Param #   
=================================================================
1674433912.127112 (InputLaye (None, 59, 4, 1)          0         
_________________________________________________________________
1674433912.12773 (Conv2D)    (None, 59, 4, 64)         640       
_________________________________________________________________
1674433922.2314959 (Conv2D)  (None, 59, 4, 64)         200768    
_________________________________________________________________
1674433922.383036 (Flatten)  (None, 15104)             0         
_________________________________________________________________
1674433922.387418 (Dense)    (None, 2)                 30210     
=================================================================
Total params: 231,618
Trainable params: 231,618
Non-trainable params: 0
_________________________________________________________________
