_________________________________________________________________
Layer (type)                 Output Shape              Param #   
=================================================================
1675049578.760544 (InputLaye (None, 59, 4, 1)          0         
_________________________________________________________________
1675049578.774807 (Conv2D)   (None, 59, 4, 64)         3200      
_________________________________________________________________
1675049578.7946959 (Flatten) (None, 15104)             0         
_________________________________________________________________
1675049915.895871 (Dense)    (None, 64)                966720    
_________________________________________________________________
1675049915.907948 (Dense)    (None, 2)                 130       
=================================================================
Total params: 970,050
Trainable params: 970,050
Non-trainable params: 0
_________________________________________________________________
