_________________________________________________________________
Layer (type)                 Output Shape              Param #   
=================================================================
1642540885.146131 (InputLaye (None, 17, 4, 1)          0         
_________________________________________________________________
1642540885.147021 (Conv2D)   (None, 17, 4, 64)         1664      
_________________________________________________________________
1642540915.8467588 (Conv2D)  (None, 17, 4, 8)          25096     
_________________________________________________________________
1642540915.858662 (BatchNorm (None, 17, 4, 8)          32        
_________________________________________________________________
1642540915.891371 (Flatten)  (None, 544)               0         
_________________________________________________________________
1642540915.894996 (Dense)    (None, 2)                 1090      
=================================================================
Total params: 27,882
Trainable params: 27,866
Non-trainable params: 16
_________________________________________________________________
