_________________________________________________________________
Layer (type)                 Output Shape              Param #   
=================================================================
1674580202.310658 (InputLaye (None, 59, 4, 1)          0         
_________________________________________________________________
1674580202.3112519 (Conv2D)  (None, 59, 4, 64)         640       
_________________________________________________________________
1674580202.322957 (Flatten)  (None, 15104)             0         
_________________________________________________________________
1674580235.928708 (Dense)    (None, 256)               3866880   
_________________________________________________________________
1674580235.939467 (Dense)    (None, 2)                 514       
=================================================================
Total params: 3,868,034
Trainable params: 3,868,034
Non-trainable params: 0
_________________________________________________________________
