_________________________________________________________________
Layer (type)                 Output Shape              Param #   
=================================================================
1673804253.4539368 (InputLay (None, 59, 4, 1)          0         
_________________________________________________________________
1673804253.454527 (Conv2D)   (None, 59, 4, 16)         800       
_________________________________________________________________
1673804253.465844 (Flatten)  (None, 3776)              0         
_________________________________________________________________
1673804271.60523 (Dense)     (None, 256)               966912    
_________________________________________________________________
1673804271.615426 (Dense)    (None, 2)                 514       
=================================================================
Total params: 968,226
Trainable params: 968,226
Non-trainable params: 0
_________________________________________________________________
