_________________________________________________________________
Layer (type)                 Output Shape              Param #   
=================================================================
1643248443.2531042 (InputLay (None, 13, 177, 1)        0         
_________________________________________________________________
1643248443.26394 (Conv2D)    (None, 13, 177, 32)       1600      
_________________________________________________________________
1643248470.6011531 (Dropout) (None, 13, 177, 32)       0         
_________________________________________________________________
1643248470.612138 (Flatten)  (None, 73632)             0         
_________________________________________________________________
1643248470.617264 (Dense)    (None, 2)                 147266    
=================================================================
Total params: 148,866
Trainable params: 148,866
Non-trainable params: 0
_________________________________________________________________
