_________________________________________________________________
Layer (type)                 Output Shape              Param #   
=================================================================
1673532199.733661 (InputLaye (None, 749, 20, 1)        0         
_________________________________________________________________
1673532199.7346728 (Conv2D)  (None, 749, 20, 64)       3200      
_________________________________________________________________
1673539768.5722911 (Dropout) (None, 749, 20, 64)       0         
_________________________________________________________________
1673539768.5864441 (Flatten) (None, 958720)            0         
_________________________________________________________________
1673539768.591417 (Dense)    (None, 1)                 958721    
=================================================================
Total params: 961,921
Trainable params: 961,921
Non-trainable params: 0
_________________________________________________________________
