_________________________________________________________________
Layer (type)                 Output Shape              Param #   
=================================================================
1642368674.479501 (InputLaye (None, 11, 753, 1)        0         
_________________________________________________________________
1642368674.48031 (Conv2D)    (None, 11, 753, 32)       832       
_________________________________________________________________
1642369743.376844 (Flatten)  (None, 265056)            0         
_________________________________________________________________
1642369743.382092 (Dense)    (None, 30)                7951710   
_________________________________________________________________
1642369743.395371 (Dense)    (None, 4)                 124       
=================================================================
Total params: 7,952,666
Trainable params: 7,952,666
Non-trainable params: 0
_________________________________________________________________
